Layer name,IFMAP Height,IFMAP Width,Filter Height,Filter Width,Channels,Num Filter,Strides,l_density,n_density,m_density,vector_core
conv1,224,224,7,7,3,64,2,1.0,1.0,1.0,0
layer1.0.mask_s.atten_s,7,7,3,3,64,1,1,1.0,1.0,1.0,1
layer1.0.mask_c.atten_c.0,1,1,1,1,64,16,1,1.0,1.0,1.0,1
layer1.0.mask_c.atten_c.3,1,1,1,1,16,64,1,1.0,1.0,1.0,1
layer1.0.conv1,56,56,3,3,64,64,1,0.99761455017142,0.3831852674484253,1.0,0
layer1.0.conv2,56,56,3,3,64,64,1,0.99761455017142,1.0,0.3831852674484253,0
layer1.1.mask_s.atten_s,7,7,3,3,64,1,1,1.0,1.0,1.0,1
layer1.1.mask_c.atten_c.0,1,1,1,1,64,16,1,1.0,1.0,1.0,1
layer1.1.mask_c.atten_c.3,1,1,1,1,16,64,1,1.0,1.0,1.0,1
layer1.1.conv1,56,56,3,3,64,64,1,0.9652198627591133,0.32150405645370483,1.0,0
layer1.1.conv2,56,56,3,3,64,64,1,0.9652198627591133,1.0,0.32150405645370483,0
layer2.0.mask_s.atten_s,7,7,3,3,64,1,1,1.0,1.0,1.0,1
layer2.0.mask_c.atten_c.0,1,1,1,1,64,16,1,1.0,1.0,1.0,1
layer2.0.mask_c.atten_c.3,1,1,1,1,16,128,1,1.0,1.0,1.0,1
layer2.0.conv1,56,56,3,3,64,128,2,0.9614922665059566,0.7168425619602203,1.0,0
layer2.0.conv2,28,28,3,3,128,128,1,0.9614922665059566,1.0,0.7168425619602203,0
layer2.0.downsample,56,56,1,1,64,128,2,1.0,1.0,1.0,0
layer2.1.mask_s.atten_s,7,7,3,3,128,1,1,1.0,1.0,1.0,1
layer2.1.mask_c.atten_c.0,1,1,1,1,128,32,1,1.0,1.0,1.0,1
layer2.1.mask_c.atten_c.3,1,1,1,1,32,128,1,1.0,1.0,1.0,1
layer2.1.conv1,28,28,3,3,128,128,1,0.8478328585624695,0.48518484830856323,1.0,0
layer2.1.conv2,28,28,3,3,128,128,1,0.8478328585624695,1.0,0.48518484830856323,0
layer3.0.mask_s.atten_s,7,7,3,3,128,1,1,1.0,1.0,1.0,1
layer3.0.mask_c.atten_c.0,1,1,1,1,128,32,1,1.0,1.0,1.0,1
layer3.0.mask_c.atten_c.3,1,1,1,1,32,256,1,1.0,1.0,1.0,1
layer3.0.conv1,28,28,3,3,128,256,2,0.9238647297024727,0.768001601099968,1.0,0
layer3.0.conv2,14,14,3,3,256,256,1,0.9238647297024727,1.0,0.768001601099968,0
layer3.0.downsample,28,28,1,1,128,256,2,1.0,1.0,1.0,0
layer3.1.mask_s.atten_s,7,7,3,3,256,1,1,1.0,1.0,1.0,1
layer3.1.mask_c.atten_c.0,1,1,1,1,256,64,1,1.0,1.0,1.0,1
layer3.1.mask_c.atten_c.3,1,1,1,1,64,256,1,1.0,1.0,1.0,1
layer3.1.conv1,14,14,3,3,256,256,1,0.6866255700588226,0.5190859138965607,1.0,0
layer3.1.conv2,14,14,3,3,256,256,1,0.6866255700588226,1.0,0.5190859138965607,0
layer4.0.mask_s.atten_s,7,7,3,3,256,1,1,1.0,1.0,1.0,1
layer4.0.mask_c.atten_c.0,1,1,1,1,256,64,1,1.0,1.0,1.0,1
layer4.0.mask_c.atten_c.3,1,1,1,1,64,512,1,1.0,1.0,1.0,1
layer4.0.conv1,14,14,3,3,256,512,2,0.7132678329944611,0.7705696672201157,1.0,0
layer4.0.conv2,7,7,3,3,512,512,1,0.7132678329944611,1.0,0.7705696672201157,0
layer4.0.downsample,14,14,1,1,256,512,2,1.0,1.0,1.0,0
layer4.1.mask_s.atten_s,7,7,3,3,512,1,1,1.0,1.0,1.0,1
layer4.1.mask_c.atten_c.0,1,1,1,1,512,128,1,1.0,1.0,1.0,1
layer4.1.mask_c.atten_c.3,1,1,1,1,128,512,1,1.0,1.0,1.0,1
layer4.1.conv1,7,7,3,3,512,512,1,0.9179965779185295,0.7734604179859161,1.0,0
layer4.1.conv2,7,7,3,3,512,512,1,0.9179965779185295,1.0,0.7734604179859161,0
fc,1,1,1,1,512,1000,1,1.0,1.0,1.0,0
