Layer name,IFMAP Height,IFMAP Width,Filter Height,Filter Width,Channels,Num Filter,Strides,l_density,n_density,m_density,vector_core
conv1,224,224,7,7,3,64,2,1.0,1.0,1.0,0
layer1.0.mask_s.atten_s,7,7,3,3,64,1,1,1.0,1.0,1.0,1
layer1.0.mask_c.atten_c.0,1,1,1,1,64,16,1,1.0,1.0,1.0,1
layer1.0.mask_c.atten_c.3,1,1,1,1,16,64,1,1.0,1.0,1.0,1
layer1.0.conv1,56,56,3,3,64,64,1,0.9998430197010748,0.3373256325721741,1.0,0
layer1.0.conv2,56,56,3,3,64,64,1,0.9998430197010748,1.0,0.3373256325721741,0
layer1.1.mask_s.atten_s,7,7,3,3,64,1,1,1.0,1.0,1.0,1
layer1.1.mask_c.atten_c.0,1,1,1,1,64,16,1,1.0,1.0,1.0,1
layer1.1.mask_c.atten_c.3,1,1,1,1,16,64,1,1.0,1.0,1.0,1
layer1.1.conv1,56,56,3,3,64,64,1,0.029593169689178467,0.2522989511489868,1.0,0
layer1.1.conv2,56,56,3,3,64,64,1,0.029593169689178467,1.0,0.2522989511489868,0
layer2.0.mask_s.atten_s,7,7,3,3,64,1,1,1.0,1.0,1.0,1
layer2.0.mask_c.atten_c.0,1,1,1,1,64,16,1,1.0,1.0,1.0,1
layer2.0.mask_c.atten_c.3,1,1,1,1,16,128,1,1.0,1.0,1.0,1
layer2.0.conv1,56,56,3,3,64,128,2,0.9651258327066898,0.5886228680610657,1.0,0
layer2.0.conv2,28,28,3,3,128,128,1,0.9651258327066898,1.0,0.5886228680610657,0
layer2.0.downsample,56,56,1,1,64,128,2,1.0,1.0,1.0,0
layer2.1.mask_s.atten_s,7,7,3,3,128,1,1,1.0,1.0,1.0,1
layer2.1.mask_c.atten_c.0,1,1,1,1,128,32,1,1.0,1.0,1.0,1
layer2.1.mask_c.atten_c.3,1,1,1,1,32,128,1,1.0,1.0,1.0,1
layer2.1.conv1,28,28,3,3,128,128,1,0.8843852281570435,0.35668206214904785,1.0,0
layer2.1.conv2,28,28,3,3,128,128,1,0.8843852281570435,1.0,0.35668206214904785,0
layer3.0.mask_s.atten_s,7,7,3,3,128,1,1,1.0,1.0,1.0,1
layer3.0.mask_c.atten_c.0,1,1,1,1,128,32,1,1.0,1.0,1.0,1
layer3.0.mask_c.atten_c.3,1,1,1,1,32,256,1,1.0,1.0,1.0,1
layer3.0.conv1,28,28,3,3,128,256,2,0.9246929958462715,0.7029768526554108,1.0,0
layer3.0.conv2,14,14,3,3,256,256,1,0.9246929958462715,1.0,0.7029768526554108,0
layer3.0.downsample,28,28,1,1,128,256,2,1.0,1.0,1.0,0
layer3.1.mask_s.atten_s,7,7,3,3,256,1,1,1.0,1.0,1.0,1
layer3.1.mask_c.atten_c.0,1,1,1,1,256,64,1,1.0,1.0,1.0,1
layer3.1.mask_c.atten_c.3,1,1,1,1,64,256,1,1.0,1.0,1.0,1
layer3.1.conv1,14,14,3,3,256,256,1,0.65114626288414,0.47496581077575684,1.0,0
layer3.1.conv2,14,14,3,3,256,256,1,0.65114626288414,1.0,0.47496581077575684,0
layer4.0.mask_s.atten_s,7,7,3,3,256,1,1,1.0,1.0,1.0,1
layer4.0.mask_c.atten_c.0,1,1,1,1,256,64,1,1.0,1.0,1.0,1
layer4.0.mask_c.atten_c.3,1,1,1,1,64,512,1,1.0,1.0,1.0,1
layer4.0.conv1,14,14,3,3,256,512,2,0.6911210417747498,0.7247542440891266,1.0,0
layer4.0.conv2,7,7,3,3,512,512,1,0.6911210417747498,1.0,0.7247542440891266,0
layer4.0.downsample,14,14,1,1,256,512,2,1.0,1.0,1.0,0
layer4.1.mask_s.atten_s,7,7,3,3,512,1,1,1.0,1.0,1.0,1
layer4.1.mask_c.atten_c.0,1,1,1,1,512,128,1,1.0,1.0,1.0,1
layer4.1.mask_c.atten_c.3,1,1,1,1,128,512,1,1.0,1.0,1.0,1
layer4.1.conv1,7,7,3,3,512,512,1,0.8909541070461273,0.714537501335144,1.0,0
layer4.1.conv2,7,7,3,3,512,512,1,0.8909541070461273,1.0,0.714537501335144,0
fc,1,1,1,1,512,1000,1,1.0,1.0,1.0,0
