Layer name,IFMAP Height,IFMAP Width,Filter Height,Filter Width,Channels,Num Filter,Strides
features.0,224,224,11,11,3,64,4
features.3,27,27,5,5,64,192,1
features.6,13,13,3,3,192,384,1
features.8,13,13,3,3,384,256,1
features.10,13,13,3,3,256,256,1
classifier.1,1,1,1,1,9216,4096,1
classifier.4,1,1,1,1,4096,4096,1
classifier.6,1,1,1,1,4096,1000,1
