Layer name,IFMAP Height,IFMAP Width,Filter Height,Filter Width,Channels,Num Filter,Strides,l_density,n_density,m_density,vector_core
conv1,224,224,7,7,3,64,2,1.0,1.0,1.0,0
layer1.0.mask_s.atten_s,7,7,3,3,64,1,1,1.0,1.0,1.0,1
layer1.0.mask_c.atten_c.0,1,1,1,1,64,16,1,1.0,1.0,1.0,1
layer1.0.mask_c.atten_c.3,1,1,1,1,16,64,1,1.0,1.0,1.0,1
layer1.0.conv1,56,56,3,3,64,64,1,0.4863961338996887,0.26916128396987915,1.0,0
layer1.0.conv2,56,56,3,3,64,64,1,0.4863961338996887,1.0,0.26916128396987915,0
layer1.1.mask_s.atten_s,7,7,3,3,64,1,1,1.0,1.0,1.0,1
layer1.1.mask_c.atten_c.0,1,1,1,1,64,16,1,1.0,1.0,1.0,1
layer1.1.mask_c.atten_c.3,1,1,1,1,16,64,1,1.0,1.0,1.0,1
layer1.1.conv1,56,56,3,3,64,64,1,0.513603001832962,0.19336777925491333,1.0,0
layer1.1.conv2,56,56,3,3,64,64,1,0.513603001832962,1.0,0.19336777925491333,0
layer2.0.mask_s.atten_s,7,7,3,3,64,1,1,1.0,1.0,1.0,1
layer2.0.mask_c.atten_c.0,1,1,1,1,64,16,1,1.0,1.0,1.0,1
layer2.0.mask_c.atten_c.3,1,1,1,1,16,128,1,1.0,1.0,1.0,1
layer2.0.conv1,56,56,3,3,64,128,2,0.9499305188655853,0.538405179977417,1.0,0
layer2.0.conv2,28,28,3,3,128,128,1,0.9499305188655853,1.0,0.538405179977417,0
layer2.0.downsample,56,56,1,1,64,128,2,1.0,1.0,1.0,0
layer2.1.mask_s.atten_s,7,7,3,3,128,1,1,1.0,1.0,1.0,1
layer2.1.mask_c.atten_c.0,1,1,1,1,128,32,1,1.0,1.0,1.0,1
layer2.1.mask_c.atten_c.3,1,1,1,1,32,128,1,1.0,1.0,1.0,1
layer2.1.conv1,28,28,3,3,128,128,1,0.8655010908842087,0.2092854380607605,1.0,0
layer2.1.conv2,28,28,3,3,128,128,1,0.8655010908842087,1.0,0.2092854380607605,0
layer3.0.mask_s.atten_s,7,7,3,3,128,1,1,1.0,1.0,1.0,1
layer3.0.mask_c.atten_c.0,1,1,1,1,128,32,1,1.0,1.0,1.0,1
layer3.0.mask_c.atten_c.3,1,1,1,1,32,256,1,1.0,1.0,1.0,1
layer3.0.conv1,28,28,3,3,128,256,2,0.8889484852552414,0.6750482022762299,1.0,0
layer3.0.conv2,14,14,3,3,256,256,1,0.8889484852552414,1.0,0.6750482022762299,0
layer3.0.downsample,28,28,1,1,128,256,2,1.0,1.0,1.0,0
layer3.1.mask_s.atten_s,7,7,3,3,256,1,1,1.0,1.0,1.0,1
layer3.1.mask_c.atten_c.0,1,1,1,1,256,64,1,1.0,1.0,1.0,1
layer3.1.mask_c.atten_c.3,1,1,1,1,64,256,1,1.0,1.0,1.0,1
layer3.1.conv1,14,14,3,3,256,256,1,0.5958247780799866,0.36676961183547974,1.0,0
layer3.1.conv2,14,14,3,3,256,256,1,0.5958247780799866,1.0,0.36676961183547974,0
layer4.0.mask_s.atten_s,7,7,3,3,256,1,1,1.0,1.0,1.0,1
layer4.0.mask_c.atten_c.0,1,1,1,1,256,64,1,1.0,1.0,1.0,1
layer4.0.mask_c.atten_c.3,1,1,1,1,64,512,1,1.0,1.0,1.0,1
layer4.0.conv1,14,14,3,3,256,512,2,0.6334664523601532,0.6617471575737,1.0,0
layer4.0.conv2,7,7,3,3,512,512,1,0.6334664523601532,1.0,0.6617471575737,0
layer4.0.downsample,14,14,1,1,256,512,2,1.0,1.0,1.0,0
layer4.1.mask_s.atten_s,7,7,3,3,512,1,1,1.0,1.0,1.0,1
layer4.1.mask_c.atten_c.0,1,1,1,1,512,128,1,1.0,1.0,1.0,1
layer4.1.mask_c.atten_c.3,1,1,1,1,128,512,1,1.0,1.0,1.0,1
layer4.1.conv1,7,7,3,3,512,512,1,0.8175812363624573,0.6259959638118744,1.0,0
layer4.1.conv2,7,7,3,3,512,512,1,0.8175812363624573,1.0,0.6259959638118744,0
fc,1,1,1,1,512,1000,1,1.0,1.0,1.0,0
