Layer name,IFMAP Height,IFMAP Width,Filter Height,Filter Width,Channels,Num Filter,Strides,l_density,n_density,m_density,vector_core
conv1,224,224,7,7,3,64,2,1.0,1.0,1.0,0
layer1.0.mask_s.atten_s,7,7,3,3,64,1,1,1.0,1.0,1.0,1
layer1.0.mask_c.atten_c.0,1,1,1,1,64,16,1,1.0,1.0,1.0,1
layer1.0.mask_c.atten_c.3,1,1,1,1,16,64,1,1.0,1.0,1.0,1
layer1.0.conv1,56,56,3,3,64,64,1,0.9198750406503677,0.22258955240249634,1.0,0
layer1.0.conv2,56,56,3,3,64,64,1,0.9198750406503677,1.0,0.22258955240249634,0
layer1.1.mask_s.atten_s,7,7,3,3,64,1,1,1.0,1.0,1.0,1
layer1.1.mask_c.atten_c.0,1,1,1,1,64,16,1,1.0,1.0,1.0,1
layer1.1.mask_c.atten_c.3,1,1,1,1,16,64,1,1.0,1.0,1.0,1
layer1.1.conv1,56,56,3,3,64,64,1,0.0,0.4475826621055603,1.0,0
layer1.1.conv2,56,56,3,3,64,64,1,0.0,1.0,0.4475826621055603,0
layer2.0.mask_s.atten_s,7,7,3,3,64,1,1,1.0,1.0,1.0,1
layer2.0.mask_c.atten_c.0,1,1,1,1,64,16,1,1.0,1.0,1.0,1
layer2.0.mask_c.atten_c.3,1,1,1,1,16,128,1,1.0,1.0,1.0,1
layer2.0.conv1,56,56,3,3,64,128,2,0.897151343524456,0.5363262295722961,1.0,0
layer2.0.conv2,28,28,3,3,128,128,1,0.897151343524456,1.0,0.5363262295722961,0
layer2.0.downsample,56,56,1,1,64,128,2,1.0,1.0,1.0,0
layer2.1.mask_s.atten_s,7,7,3,3,128,1,1,1.0,1.0,1.0,1
layer2.1.mask_c.atten_c.0,1,1,1,1,128,32,1,1.0,1.0,1.0,1
layer2.1.mask_c.atten_c.3,1,1,1,1,32,128,1,1.0,1.0,1.0,1
layer2.1.conv1,28,28,3,3,128,128,1,0.6608372926712036,0.06417500972747803,1.0,0
layer2.1.conv2,28,28,3,3,128,128,1,0.6608372926712036,1.0,0.06417500972747803,0
layer3.0.mask_s.atten_s,7,7,3,3,128,1,1,1.0,1.0,1.0,1
layer3.0.mask_c.atten_c.0,1,1,1,1,128,32,1,1.0,1.0,1.0,1
layer3.0.mask_c.atten_c.3,1,1,1,1,32,256,1,1.0,1.0,1.0,1
layer3.0.conv1,28,28,3,3,128,256,2,0.8478565514087677,0.619629293680191,1.0,0
layer3.0.conv2,14,14,3,3,256,256,1,0.8478565514087677,1.0,0.619629293680191,0
layer3.0.downsample,28,28,1,1,128,256,2,1.0,1.0,1.0,0
layer3.1.mask_s.atten_s,7,7,3,3,256,1,1,1.0,1.0,1.0,1
layer3.1.mask_c.atten_c.0,1,1,1,1,256,64,1,1.0,1.0,1.0,1
layer3.1.mask_c.atten_c.3,1,1,1,1,64,256,1,1.0,1.0,1.0,1
layer3.1.conv1,14,14,3,3,256,256,1,0.5541673302650452,0.24760276079177856,1.0,0
layer3.1.conv2,14,14,3,3,256,256,1,0.5541673302650452,1.0,0.24760276079177856,0
layer4.0.mask_s.atten_s,7,7,3,3,256,1,1,1.0,1.0,1.0,1
layer4.0.mask_c.atten_c.0,1,1,1,1,256,64,1,1.0,1.0,1.0,1
layer4.0.mask_c.atten_c.3,1,1,1,1,64,512,1,1.0,1.0,1.0,1
layer4.0.conv1,14,14,3,3,256,512,2,0.5627721846103668,0.5798409283161163,1.0,0
layer4.0.conv2,7,7,3,3,512,512,1,0.5627721846103668,1.0,0.5798409283161163,0
layer4.0.downsample,14,14,1,1,256,512,2,1.0,1.0,1.0,0
layer4.1.mask_s.atten_s,7,7,3,3,512,1,1,1.0,1.0,1.0,1
layer4.1.mask_c.atten_c.0,1,1,1,1,512,128,1,1.0,1.0,1.0,1
layer4.1.mask_c.atten_c.3,1,1,1,1,128,512,1,1.0,1.0,1.0,1
layer4.1.conv1,7,7,3,3,512,512,1,0.7801796942949295,0.4709656238555908,1.0,0
layer4.1.conv2,7,7,3,3,512,512,1,0.7801796942949295,1.0,0.4709656238555908,0
fc,1,1,1,1,512,1000,1,1.0,1.0,1.0,0
